Files already downloaded and verified
Files already downloaded and verified
ConvNet(
  (conv1): Conv2d(3, 96, kernel_size=(3, 3), stride=(1, 1))
  (bn1): BatchNorm2d(96, eps=1e-05, momentum=0.1, affine=True, track_running_stats=True)
  (relu1): ReLU()
  (conv_layers): Sequential(
    (0): Conv2d(96, 96, kernel_size=(3, 3), stride=(1, 1))
    (1): BatchNorm2d(96, eps=1e-05, momentum=0.1, affine=True, track_running_stats=True)
    (2): ReLU()
    (3): Conv2d(96, 192, kernel_size=(3, 3), stride=(2, 2))
    (4): BatchNorm2d(192, eps=1e-05, momentum=0.1, affine=True, track_running_stats=True)
    (5): ReLU()
    (6): Conv2d(192, 192, kernel_size=(3, 3), stride=(1, 1))
    (7): BatchNorm2d(192, eps=1e-05, momentum=0.1, affine=True, track_running_stats=True)
    (8): ReLU()
    (9): Conv2d(192, 384, kernel_size=(3, 3), stride=(2, 2))
    (10): BatchNorm2d(384, eps=1e-05, momentum=0.1, affine=True, track_running_stats=True)
    (11): ReLU()
    (12): Conv2d(384, 384, kernel_size=(3, 3), stride=(1, 1))
    (13): BatchNorm2d(384, eps=1e-05, momentum=0.1, affine=True, track_running_stats=True)
    (14): ReLU()
    (15): Conv2d(384, 768, kernel_size=(3, 3), stride=(2, 2))
    (16): BatchNorm2d(768, eps=1e-05, momentum=0.1, affine=True, track_running_stats=True)
    (17): ReLU()
  )
  (conv2): Conv2d(768, 768, kernel_size=(3, 3), stride=(1, 1))
  (bn2): BatchNorm2d(768, eps=1e-05, momentum=0.1, affine=True, track_running_stats=True)
  (relu2): ReLU()
  (final_conv1): Conv2d(768, 768, kernel_size=(1, 1), stride=(1, 1))
  (final_bn1): BatchNorm2d(768, eps=1e-05, momentum=0.1, affine=True, track_running_stats=True)
  (relu_final1): ReLU()
  (final_conv2): Conv2d(768, 10, kernel_size=(1, 1), stride=(1, 1))
  (avgpool): AdaptiveAvgPool2d(output_size=(1, 1))
)
Epoch [1/140], Loss: 1.5681, Train Accuracy: 0.4256, Test Accuracy: 0.5241
Epoch [2/140], Loss: 1.1169, Train Accuracy: 0.6012, Test Accuracy: 0.6102
Epoch [3/140], Loss: 0.8337, Train Accuracy: 0.7046, Test Accuracy: 0.6615
Epoch [4/140], Loss: 0.6145, Train Accuracy: 0.7818, Test Accuracy: 0.6801
Epoch [5/140], Loss: 0.4347, Train Accuracy: 0.8469, Test Accuracy: 0.6782
…
