Files already downloaded and verified
Files already downloaded and verified
ConvNet(
  (conv1): Conv2d(3, 96, kernel_size=(3, 3), stride=(1, 1))
  (bn1): BatchNorm2d(96, eps=1e-05, momentum=0.1, affine=True, track_running_stats=True)
  (relu1): ReLU()
  (conv_layers): Sequential(
    (0): Conv2d(96, 96, kernel_size=(3, 3), stride=(1, 1))
    (1): BatchNorm2d(96, eps=1e-05, momentum=0.1, affine=True, track_running_stats=True)
    (2): ReLU()
    (3): Conv2d(96, 192, kernel_size=(3, 3), stride=(2, 2))
    (4): BatchNorm2d(192, eps=1e-05, momentum=0.1, affine=True, track_running_stats=True)
    (5): ReLU()
    (6): Conv2d(192, 192, kernel_size=(3, 3), stride=(1, 1))
    (7): BatchNorm2d(192, eps=1e-05, momentum=0.1, affine=True, track_running_stats=True)
    (8): ReLU()
    (9): Conv2d(192, 384, kernel_size=(3, 3), stride=(2, 2))
    (10): BatchNorm2d(384, eps=1e-05, momentum=0.1, affine=True, track_running_stats=True)
    (11): ReLU()
  )
  (conv2): Conv2d(384, 384, kernel_size=(3, 3), stride=(1, 1))
  (bn2): BatchNorm2d(384, eps=1e-05, momentum=0.1, affine=True, track_running_stats=True)
  (relu2): ReLU()
  (final_conv1): Conv2d(384, 384, kernel_size=(1, 1), stride=(1, 1))
  (final_bn1): BatchNorm2d(384, eps=1e-05, momentum=0.1, affine=True, track_running_stats=True)
  (relu_final1): ReLU()
  (final_conv2): Conv2d(384, 10, kernel_size=(1, 1), stride=(1, 1))
  (avgpool): AdaptiveAvgPool2d(output_size=(1, 1))
)
  0%|                                                                                                | 0/2 [00:00<?, ?it/s]
Chunk [1/2], Epoch [1/100], Loss: 1.7245, Train Accuracy: 0.3586, Test Accuracy: 0.4231
Chunk [1/2], Epoch [2/100], Loss: 1.3124, Train Accuracy: 0.5202, Test Accuracy: 0.5227
Chunk [1/2], Epoch [3/100], Loss: 1.0966, Train Accuracy: 0.6054, Test Accuracy: 0.6033
…
