Files already downloaded and verified
Files already downloaded and verified
ConvNet(
  (conv1): Conv2d(3, 96, kernel_size=(3, 3), stride=(1, 1))
  (bn1): BatchNorm2d(96, eps=1e-05, momentum=0.1, affine=True, track_running_stats=True)
  (relu1): ReLU()
  (conv_layers): Sequential(
    (0): Conv2d(96, 96, kernel_size=(3, 3), stride=(1, 1))
    (1): BatchNorm2d(96, eps=1e-05, momentum=0.1, affine=True, track_running_stats=True)
    (2): ReLU()
    (3): Conv2d(96, 192, kernel_size=(3, 3), stride=(2, 2))
    (4): BatchNorm2d(192, eps=1e-05, momentum=0.1, affine=True, track_running_stats=True)
    (5): ReLU()
  )
  (conv2): Conv2d(192, 192, kernel_size=(3, 3), stride=(1, 1))
  (bn2): BatchNorm2d(192, eps=1e-05, momentum=0.1, affine=True, track_running_stats=True)
  (relu2): ReLU()
  (final_conv1): Conv2d(192, 192, kernel_size=(1, 1), stride=(1, 1))
  (final_bn1): BatchNorm2d(192, eps=1e-05, momentum=0.1, affine=True, track_running_stats=True)
  (relu_final1): ReLU()
  (final_conv2): Conv2d(192, 10, kernel_size=(1, 1), stride=(1, 1))
  (avgpool): AdaptiveAvgPool2d(output_size=(1, 1))
)
  0%|                                                                                                 | 0/2 [00:00<?, ?it/s]
Chunk [1/2], Epoch [1/100], Loss: 2.2011, Train Accuracy: 0.2164, Test Accuracy: 0.2518
Chunk [1/2], Epoch [2/100], Loss: 2.0416, Train Accuracy: 0.2638, Test Accuracy: 0.2862
Chunk [1/2], Epoch [3/100], Loss: 1.9279, Train Accuracy: 0.2962, Test Accuracy: 0.3215
…
