Files already downloaded and verified
Files already downloaded and verified
  0%|                                                                                                | 0/2 [00:00<?, ?it/s]
ConvNet(
  (conv1): Conv2d(3, 96, kernel_size=(3, 3), stride=(1, 1))
  (bn1): BatchNorm2d(96, eps=1e-05, momentum=0.1, affine=True, track_running_stats=True)
  (relu1): ReLU()
  (conv_layers): Sequential(
    (0): Conv2d(96, 96, kernel_size=(3, 3), stride=(1, 1))
    (1): BatchNorm2d(96, eps=1e-05, momentum=0.1, affine=True, track_running_stats=True)
    (2): ReLU()
    (3): Conv2d(96, 192, kernel_size=(3, 3), stride=(2, 2))
    (4): BatchNorm2d(192, eps=1e-05, momentum=0.1, affine=True, track_running_stats=True)
    (5): ReLU()
  )
  (conv2): Conv2d(192, 192, kernel_size=(3, 3), stride=(1, 1))
  (bn2): BatchNorm2d(192, eps=1e-05, momentum=0.1, affine=True, track_running_stats=True)
  (relu2): ReLU()
  (final_conv1): Conv2d(192, 192, kernel_size=(1, 1), stride=(1, 1))
  (final_bn1): BatchNorm2d(192, eps=1e-05, momentum=0.1, affine=True, track_running_stats=True)
  (relu_final1): ReLU()
  (final_conv2): Conv2d(192, 10, kernel_size=(1, 1), stride=(1, 1))
  (avgpool): AdaptiveAvgPool2d(output_size=(1, 1))
)
Chunk [1/2], Epoch [1/10], Loss: 1.8765, Train Accuracy: 0.2949, Test Accuracy: 0.3700
Chunk [1/2], Epoch [2/10], Loss: 1.5629, Train Accuracy: 0.4128, Test Accuracy: 0.4310
Chunk [1/2], Epoch [3/10], Loss: 1.4048, Train Accuracy: 0.4856, Test Accuracy: 0.4211
Chunk [1/2], Epoch [4/10], Loss: 1.3057, Train Accuracy: 0.5273, Test Accuracy: 0.4560
…
