Files already downloaded and verified
Files already downloaded and verified
  0%|                                                                                                | 0/1 [00:00<?, ?it/s]
ConvNet(
  (conv1): Conv2d(3, 96, kernel_size=(3, 3), stride=(1, 1))
  (bn1): BatchNorm2d(96, eps=1e-05, momentum=0.1, affine=True, track_running_stats=True)
  (relu1): ReLU()
  (conv_layers): Sequential(
    (0): Conv2d(96, 96, kernel_size=(3, 3), stride=(1, 1))
    (1): BatchNorm2d(96, eps=1e-05, momentum=0.1, affine=True, track_running_stats=True)
    (2): ReLU()
    (3): Conv2d(96, 192, kernel_size=(3, 3), stride=(2, 2))
    (4): BatchNorm2d(192, eps=1e-05, momentum=0.1, affine=True, track_running_stats=True)
    (5): ReLU()
    (6): Conv2d(192, 192, kernel_size=(3, 3), stride=(1, 1))
    (7): BatchNorm2d(192, eps=1e-05, momentum=0.1, affine=True, track_running_stats=True)
    (8): ReLU()
    (9): Conv2d(192, 384, kernel_size=(3, 3), stride=(2, 2))
    (10): BatchNorm2d(384, eps=1e-05, momentum=0.1, affine=True, track_running_stats=True)
    (11): ReLU()
  )
  (conv2): Conv2d(384, 384, kernel_size=(3, 3), stride=(1, 1))
  (bn2): BatchNorm2d(384, eps=1e-05, momentum=0.1, affine=True, track_running_stats=True)
  (relu2): ReLU()
  (final_conv1): Conv2d(384, 384, kernel_size=(1, 1), stride=(1, 1))
  (final_bn1): BatchNorm2d(384, eps=1e-05, momentum=0.1, affine=True, track_running_stats=True)
  (relu_final1): ReLU()
  (final_conv2): Conv2d(384, 10, kernel_size=(1, 1), stride=(1, 1))
  (avgpool): AdaptiveAvgPool2d(output_size=(1, 1))
)
Chunk [1/1], Epoch [1/100], Loss: 1.5270, Train Accuracy: 0.4338, Test Accuracy: 0.5412
Chunk [1/1], Epoch [2/100], Loss: 1.0730, Train Accuracy: 0.6166, Test Accuracy: 0.5820
Chunk [1/1], Epoch [3/100], Loss: 0.8644, Train Accuracy: 0.6949, Test Accuracy: 0.6406
Chunk [1/1], Epoch [4/100], Loss: 0.7249, Train Accuracy: 0.7468, Test Accuracy: 0.6669
…
